batch_size = 1
n_epochs   = 30
CNN(
  (conv1): Conv2d(3, 10, kernel_size=(3, 3), stride=(1, 1), padding=(1, 1))
  (conv2): Conv2d(16, 15, kernel_size=(3, 3), stride=(1, 1), padding=(1, 1))
  (conv3): Conv2d(32, 20, kernel_size=(3, 3), stride=(1, 1), padding=(1, 1))
  (conv4): Conv2d(64, 25, kernel_size=(3, 3), stride=(1, 1), padding=(1, 1))
  (pool): MaxPool2d(kernel_size=2, stride=2, padding=0, dilation=1, ceil_mode=False)
  (fc1): Linear(in_features=15625, out_features=500, bias=True)
  (fc2): Linear(in_features=500, out_features=2, bias=True)
  (dropout): Dropout(p=0.2, inplace=False)
)
batch_size = 1
n_epochs   = 30
CNN(
  (conv1): Conv2d(3, 10, kernel_size=(3, 3), stride=(1, 1), padding=(1, 1))
  (conv2): Conv2d(10, 15, kernel_size=(3, 3), stride=(1, 1), padding=(1, 1))
  (conv3): Conv2d(15, 20, kernel_size=(3, 3), stride=(1, 1), padding=(1, 1))
  (conv4): Conv2d(20, 25, kernel_size=(3, 3), stride=(1, 1), padding=(1, 1))
  (pool): MaxPool2d(kernel_size=2, stride=2, padding=0, dilation=1, ceil_mode=False)
  (fc1): Linear(in_features=15625, out_features=500, bias=True)
  (fc2): Linear(in_features=500, out_features=2, bias=True)
  (dropout): Dropout(p=0.2, inplace=False)
)
Epoch: 1 	Training Loss: 0.688363 	Validation Loss: 0.691593
Epoch: 2 	Training Loss: 0.665952 	Validation Loss: 0.683323
Epoch: 3 	Training Loss: 0.644929 	Validation Loss: 0.767432
Epoch: 4 	Training Loss: 0.586186 	Validation Loss: 0.642996
Epoch: 5 	Training Loss: 0.560184 	Validation Loss: 0.663859
Epoch: 6 	Training Loss: 0.533344 	Validation Loss: 0.651261
…
Epoch: 22 	Training Loss: 0.311746 	Validation Loss: 0.742454
Epoch: 23 	Training Loss: 0.320204 	Validation Loss: 0.783971
Epoch: 24 	Training Loss: 0.286444 	Validation Loss: 0.737029
Epoch: 25 	Training Loss: 0.271292 	Validation Loss: 0.775393
Epoch: 26 	Training Loss: 0.264191 	Validation Loss: 0.782316
Epoch: 27 	Training Loss: 0.247400 	Validation Loss: 0.751800
Epoch: 28 	Training Loss: 0.255089 	Validation Loss: 0.675042
Epoch: 29 	Training Loss: 0.236035 	Validation Loss: 0.740183
Epoch: 30 	Training Loss: 0.212608 	Validation Loss: 0.882639
best_batch = 11
Accuracy   = 0.715
batch_size = 10
n_epochs   = 15
CNN(
  (conv1): Conv2d(3, 4, kernel_size=(3, 3), stride=(1, 1), padding=(1, 1))
  (conv2): Conv2d(4, 5, kernel_size=(3, 3), stride=(1, 1), padding=(1, 1))
  (conv3): Conv2d(5, 6, kernel_size=(3, 3), stride=(1, 1), padding=(1, 1))
  (conv4): Conv2d(6, 7, kernel_size=(3, 3), stride=(1, 1), padding=(1, 1))
  (pool): MaxPool2d(kernel_size=2, stride=2, padding=0, dilation=1, ceil_mode=False)
  (fc1): Linear(in_features=4375, out_features=500, bias=True)
  (fc2): Linear(in_features=500, out_features=2, bias=True)
  (dropout): Dropout(p=0.2, inplace=False)
)
Epoch: 1 	Training Loss: 0.694187 	Validation Loss: 0.692837
Epoch: 2 	Training Loss: 0.672261 	Validation Loss: 0.692640
Epoch: 3 	Training Loss: 0.659450 	Validation Loss: 0.709220
Epoch: 4 	Training Loss: 0.652905 	Validation Loss: 0.701847
Epoch: 5 	Training Loss: 0.647246 	Validation Loss: 0.685793
Epoch: 6 	Training Loss: 0.636546 	Validation Loss: 0.687748
…
Epoch: 22 	Training Loss: 0.322399 	Validation Loss: 0.468946
Epoch: 23 	Training Loss: 0.318571 	Validation Loss: 0.399011
Epoch: 24 	Training Loss: 0.312370 	Validation Loss: 0.449266
Epoch: 25 	Training Loss: 0.302235 	Validation Loss: 0.406181
Epoch: 26 	Training Loss: 0.283330 	Validation Loss: 0.452435
Epoch: 27 	Training Loss: 0.276729 	Validation Loss: 0.419629
Epoch: 28 	Training Loss: 0.284148 	Validation Loss: 0.427317
Epoch: 29 	Training Loss: 0.271627 	Validation Loss: 0.417869
Epoch: 30 	Training Loss: 0.258868 	Validation Loss: 0.426788
best_batch = 23
Accuracy   = 0.775
batch_size = 10
n_epochs   = 30
CNN(
  (conv1): Conv2d(3, 15, kernel_size=(3, 3), stride=(1, 1), padding=(1, 1))
  (conv2): Conv2d(15, 25, kernel_size=(3, 3), stride=(1, 1), padding=(1, 1))
  (conv3): Conv2d(25, 50, kernel_size=(3, 3), stride=(1, 1), padding=(1, 1))
  (pool): MaxPool2d(kernel_size=5, stride=5, padding=0, dilation=1, ceil_mode=False)
  (fc1): Linear(in_features=12800, out_features=500, bias=True)
  (fc2): Linear(in_features=500, out_features=2, bias=True)
  (dropout): Dropout(p=0.2, inplace=False)
)
Epoch: 1 	Training Loss: 0.691553 	Validation Loss: 0.668725
Epoch: 2 	Training Loss: 0.656553 	Validation Loss: 0.639221
Epoch: 3 	Training Loss: 0.621007 	Validation Loss: 0.605494
Epoch: 4 	Training Loss: 0.567379 	Validation Loss: 0.565191
Epoch: 5 	Training Loss: 0.555402 	Validation Loss: 0.537225
Epoch: 6 	Training Loss: 0.528062 	Validation Loss: 0.530224
…
Epoch: 22 	Training Loss: 0.333505 	Validation Loss: 0.500503
Epoch: 23 	Training Loss: 0.306382 	Validation Loss: 0.455464
Epoch: 24 	Training Loss: 0.310737 	Validation Loss: 0.464634
Epoch: 25 	Training Loss: 0.294071 	Validation Loss: 0.467736
Epoch: 26 	Training Loss: 0.298075 	Validation Loss: 0.443486
Epoch: 27 	Training Loss: 0.288259 	Validation Loss: 0.440334
Epoch: 28 	Training Loss: 0.280449 	Validation Loss: 0.477981
Epoch: 29 	Training Loss: 0.266850 	Validation Loss: 0.444918
Epoch: 30 	Training Loss: 0.253255 	Validation Loss: 0.455643
best_batch = 18
Accuracy   = 0.75
batch_size = 10
n_epochs   = 15
CNN(
  (conv1): Conv2d(3, 25, kernel_size=(3, 3), stride=(1, 1), padding=(1, 1))
  (conv2): Conv2d(25, 50, kernel_size=(3, 3), stride=(1, 1), padding=(1, 1))
  (conv3): Conv2d(50, 75, kernel_size=(3, 3), stride=(1, 1), padding=(1, 1))
  (pool): MaxPool2d(kernel_size=5, stride=5, padding=0, dilation=1, ceil_mode=False)
  (fc1): Linear(in_features=19200, out_features=500, bias=True)
  (fc2): Linear(in_features=500, out_features=2, bias=True)
  (dropout): Dropout(p=0.2, inplace=False)
)
Epoch: 1 	Training Loss: 0.682573 	Validation Loss: 0.661500
Epoch: 2 	Training Loss: 0.605433 	Validation Loss: 0.592669
Epoch: 3 	Training Loss: 0.531167 	Validation Loss: 0.668554
Epoch: 4 	Training Loss: 0.521494 	Validation Loss: 0.570209
Epoch: 5 	Training Loss: 0.499924 	Validation Loss: 0.557109
Epoch: 6 	Training Loss: 0.473501 	Validation Loss: 0.642706
Epoch: 7 	Training Loss: 0.456122 	Validation Loss: 0.557182
Epoch: 8 	Training Loss: 0.448013 	Validation Loss: 0.576930
Epoch: 9 	Training Loss: 0.428766 	Validation Loss: 0.579299
Epoch: 10 	Training Loss: 0.389630 	Validation Loss: 0.528110
Epoch: 11 	Training Loss: 0.386619 	Validation Loss: 0.517048
Epoch: 12 	Training Loss: 0.354094 	Validation Loss: 0.567033
Epoch: 13 	Training Loss: 0.352811 	Validation Loss: 0.545627
Epoch: 14 	Training Loss: 0.331314 	Validation Loss: 0.626688
Epoch: 15 	Training Loss: 0.308197 	Validation Loss: 0.674133
best_batch = 11
Accuracy   = 0.755
batch_size = 10
n_epochs   = 15
CNN(
  (conv1): Conv2d(3, 20, kernel_size=(3, 3), stride=(1, 1), padding=(1, 1))
  (conv2): Conv2d(20, 30, kernel_size=(3, 3), stride=(1, 1), padding=(1, 1))
  (conv3): Conv2d(30, 40, kernel_size=(3, 3), stride=(1, 1), padding=(1, 1))
  (conv4): Conv2d(40, 50, kernel_size=(3, 3), stride=(1, 1), padding=(1, 1))
  (pool): MaxPool2d(kernel_size=5, stride=5, padding=0, dilation=1, ceil_mode=False)
  (fc1): Linear(in_features=12800, out_features=500, bias=True)
  (fc2): Linear(in_features=500, out_features=2, bias=True)
  (dropout): Dropout(p=0.2, inplace=False)
)
Epoch: 1 	Training Loss: 0.711106 	Validation Loss: 0.674954
Epoch: 2 	Training Loss: 0.671893 	Validation Loss: 0.643630
Epoch: 3 	Training Loss: 0.640927 	Validation Loss: 0.656513
Epoch: 4 	Training Loss: 0.626707 	Validation Loss: 0.618693
Epoch: 5 	Training Loss: 0.570717 	Validation Loss: 0.630908
Epoch: 6 	Training Loss: 0.545852 	Validation Loss: 0.596812
Epoch: 7 	Training Loss: 0.514135 	Validation Loss: 0.566908
Epoch: 8 	Training Loss: 0.495300 	Validation Loss: 0.562870
Epoch: 9 	Training Loss: 0.481274 	Validation Loss: 0.534824
Epoch: 10 	Training Loss: 0.477706 	Validation Loss: 0.524396
Epoch: 11 	Training Loss: 0.467416 	Validation Loss: 0.515634
Epoch: 12 	Training Loss: 0.459349 	Validation Loss: 0.562275
Epoch: 13 	Training Loss: 0.424200 	Validation Loss: 0.706448
Epoch: 14 	Training Loss: 0.450358 	Validation Loss: 0.505348
Epoch: 15 	Training Loss: 0.427529 	Validation Loss: 0.540972
best_batch = 14
Accuracy   = 0.775
batch_size = 10
n_epochs   = 15
CNN(
  (conv1): Conv2d(3, 20, kernel_size=(3, 3), stride=(1, 1), padding=(1, 1))
  (conv2): Conv2d(20, 30, kernel_size=(3, 3), stride=(1, 1), padding=(1, 1))
  (conv3): Conv2d(30, 40, kernel_size=(3, 3), stride=(1, 1), padding=(1, 1))
  (conv4): Conv2d(40, 50, kernel_size=(3, 3), stride=(1, 1), padding=(1, 1))
  (pool1): MaxPool2d(kernel_size=5, stride=5, padding=0, dilation=1, ceil_mode=False)
  (pool2): MaxPool2d(kernel_size=2, stride=2, padding=0, dilation=1, ceil_mode=False)
  (fc1): Linear(in_features=800, out_features=500, bias=True)
  (fc2): Linear(in_features=500, out_features=2, bias=True)
  (dropout): Dropout(p=0.2, inplace=False)
)
Epoch: 1 	Training Loss: 0.694886 	Validation Loss: 0.688423
Epoch: 2 	Training Loss: 0.678467 	Validation Loss: 0.695190
Epoch: 3 	Training Loss: 0.668961 	Validation Loss: 0.672256
Epoch: 4 	Training Loss: 0.649386 	Validation Loss: 0.668795
Epoch: 5 	Training Loss: 0.622127 	Validation Loss: 0.610644
Epoch: 6 	Training Loss: 0.593656 	Validation Loss: 0.529080
Epoch: 7 	Training Loss: 0.566100 	Validation Loss: 0.509406
Epoch: 8 	Training Loss: 0.532945 	Validation Loss: 0.485563
Epoch: 9 	Training Loss: 0.542601 	Validation Loss: 0.465867
Epoch: 10 	Training Loss: 0.515656 	Validation Loss: 0.472922
Epoch: 11 	Training Loss: 0.498302 	Validation Loss: 0.457096
Epoch: 12 	Training Loss: 0.479404 	Validation Loss: 0.463165
Epoch: 13 	Training Loss: 0.485344 	Validation Loss: 0.460797
Epoch: 14 	Training Loss: 0.509504 	Validation Loss: 0.440398
Epoch: 15 	Training Loss: 0.478849 	Validation Loss: 0.422738
best_batch = 15
Accuracy   = 0.78
batch_size = 10
n_epochs   = 15
CNN(
  (conv1): Conv2d(3, 40, kernel_size=(3, 3), stride=(1, 1), padding=(1, 1))
  (conv2): Conv2d(40, 60, kernel_size=(3, 3), stride=(1, 1), padding=(1, 1))
  (conv3): Conv2d(60, 80, kernel_size=(3, 3), stride=(1, 1), padding=(1, 1))
  (conv4): Conv2d(80, 100, kernel_size=(3, 3), stride=(1, 1), padding=(1, 1))
  (pool1): MaxPool2d(kernel_size=5, stride=5, padding=0, dilation=1, ceil_mode=False)
  (pool2): MaxPool2d(kernel_size=2, stride=2, padding=0, dilation=1, ceil_mode=False)
  (fc1): Linear(in_features=1600, out_features=500, bias=True)
  (fc2): Linear(in_features=500, out_features=2, bias=True)
  (dropout): Dropout(p=0.2, inplace=False)
)
Epoch: 1 	Training Loss: 0.693798 	Validation Loss: 0.681326
Epoch: 2 	Training Loss: 0.677529 	Validation Loss: 0.678311
Epoch: 3 	Training Loss: 0.656930 	Validation Loss: 0.643334
Epoch: 4 	Training Loss: 0.585257 	Validation Loss: 0.604943
Epoch: 5 	Training Loss: 0.516822 	Validation Loss: 0.568775
Epoch: 6 	Training Loss: 0.483771 	Validation Loss: 0.593039
Epoch: 7 	Training Loss: 0.456603 	Validation Loss: 0.536427
Epoch: 8 	Training Loss: 0.458312 	Validation Loss: 0.537025
Epoch: 9 	Training Loss: 0.455145 	Validation Loss: 0.595893
Epoch: 10 	Training Loss: 0.432879 	Validation Loss: 0.597466
Epoch: 11 	Training Loss: 0.442119 	Validation Loss: 0.543355
Epoch: 12 	Training Loss: 0.428977 	Validation Loss: 0.535406
Epoch: 13 	Training Loss: 0.385953 	Validation Loss: 0.542135
Epoch: 14 	Training Loss: 0.393530 	Validation Loss: 0.681334
Epoch: 15 	Training Loss: 0.379638 	Validation Loss: 0.539934
best_batch = 12
Accuracy   = 0.785
batch_size = 10
n_epochs   = 15
CNN(
  (conv1): Conv2d(3, 40, kernel_size=(3, 3), stride=(1, 1), padding=(1, 1))
  (conv2): Conv2d(40, 60, kernel_size=(3, 3), stride=(1, 1), padding=(1, 1))
  (conv3): Conv2d(60, 80, kernel_size=(3, 3), stride=(1, 1), padding=(1, 1))
  (conv4): Conv2d(80, 150, kernel_size=(3, 3), stride=(1, 1), padding=(1, 1))
  (pool1): MaxPool2d(kernel_size=5, stride=5, padding=0, dilation=1, ceil_mode=False)
  (pool2): MaxPool2d(kernel_size=2, stride=2, padding=0, dilation=1, ceil_mode=False)
  (fc1): Linear(in_features=2400, out_features=500, bias=True)
  (fc2): Linear(in_features=500, out_features=2, bias=True)
  (dropout): Dropout(p=0.2, inplace=False)
)
Epoch: 1 	Training Loss: 0.694553 	Validation Loss: 0.687128
Epoch: 2 	Training Loss: 0.684210 	Validation Loss: 0.665293
Epoch: 3 	Training Loss: 0.635410 	Validation Loss: 0.551560
Epoch: 4 	Training Loss: 0.573112 	Validation Loss: 0.509825
Epoch: 5 	Training Loss: 0.537325 	Validation Loss: 0.493200
Epoch: 6 	Training Loss: 0.491094 	Validation Loss: 0.488588
Epoch: 7 	Training Loss: 0.510475 	Validation Loss: 0.473502
Epoch: 8 	Training Loss: 0.449643 	Validation Loss: 0.515915
Epoch: 9 	Training Loss: 0.454715 	Validation Loss: 0.525174
Epoch: 10 	Training Loss: 0.438790 	Validation Loss: 0.461983
Epoch: 11 	Training Loss: 0.433447 	Validation Loss: 0.463456
Epoch: 12 	Training Loss: 0.428345 	Validation Loss: 0.490032
Epoch: 13 	Training Loss: 0.398951 	Validation Loss: 0.464419
Epoch: 14 	Training Loss: 0.388833 	Validation Loss: 0.453600
Epoch: 15 	Training Loss: 0.370229 	Validation Loss: 0.462859
best_batch = 14
Accuracy   = 0.775
batch_size = 10
n_epochs   = 15
CNN(
  (conv1): Conv2d(3, 40, kernel_size=(3, 3), stride=(1, 1), padding=(1, 1))
  (conv2): Conv2d(40, 60, kernel_size=(3, 3), stride=(1, 1), padding=(1, 1))
  (conv3): Conv2d(60, 80, kernel_size=(3, 3), stride=(1, 1), padding=(1, 1))
  (conv4): Conv2d(80, 100, kernel_size=(3, 3), stride=(1, 1), padding=(1, 1))
  (pool1): MaxPool2d(kernel_size=5, stride=5, padding=0, dilation=1, ceil_mode=False)
  (pool2): MaxPool2d(kernel_size=2, stride=2, padding=0, dilation=1, ceil_mode=False)
  (fc1): Linear(in_features=1600, out_features=300, bias=True)
  (fc2): Linear(in_features=300, out_features=2, bias=True)
  (dropout): Dropout(p=0.2, inplace=False)
)
Epoch: 1 	Training Loss: 0.691763 	Validation Loss: 0.685492
Epoch: 2 	Training Loss: 0.676476 	Validation Loss: 0.668434
Epoch: 3 	Training Loss: 0.679392 	Validation Loss: 0.692317
Epoch: 4 	Training Loss: 0.664009 	Validation Loss: 0.660556
Epoch: 5 	Training Loss: 0.634264 	Validation Loss: 0.611216
Epoch: 6 	Training Loss: 0.576294 	Validation Loss: 0.653583
Epoch: 7 	Training Loss: 0.548375 	Validation Loss: 0.552598
Epoch: 8 	Training Loss: 0.516292 	Validation Loss: 0.549961
Epoch: 9 	Training Loss: 0.486637 	Validation Loss: 0.545877
Epoch: 10 	Training Loss: 0.460513 	Validation Loss: 0.554860
Epoch: 11 	Training Loss: 0.474810 	Validation Loss: 0.533511
Epoch: 12 	Training Loss: 0.453666 	Validation Loss: 0.527081
Epoch: 13 	Training Loss: 0.457703 	Validation Loss: 0.535626
Epoch: 14 	Training Loss: 0.430375 	Validation Loss: 0.530444
Epoch: 15 	Training Loss: 0.435817 	Validation Loss: 0.584843
best_batch = 12
Accuracy   = 0.77
batch_size = 10
n_epochs   = 15
CNN(
  (conv1): Conv2d(3, 40, kernel_size=(3, 3), stride=(1, 1), padding=(1, 1))
  (conv2): Conv2d(40, 60, kernel_size=(3, 3), stride=(1, 1), padding=(1, 1))
  (conv3): Conv2d(60, 80, kernel_size=(3, 3), stride=(1, 1), padding=(1, 1))
  (conv4): Conv2d(80, 100, kernel_size=(3, 3), stride=(1, 1), padding=(1, 1))
  (pool1): MaxPool2d(kernel_size=5, stride=5, padding=0, dilation=1, ceil_mode=False)
  (pool2): MaxPool2d(kernel_size=2, stride=2, padding=0, dilation=1, ceil_mode=False)
  (fc1): Linear(in_features=1600, out_features=200, bias=True)
  (fc2): Linear(in_features=200, out_features=2, bias=True)
  (dropout): Dropout(p=0.2, inplace=False)
)
Epoch: 1 	Training Loss: 0.695919 	Validation Loss: 0.684952
Epoch: 2 	Training Loss: 0.678422 	Validation Loss: 0.664446
Epoch: 3 	Training Loss: 0.669382 	Validation Loss: 0.657250
Epoch: 4 	Training Loss: 0.642134 	Validation Loss: 0.626970
Epoch: 5 	Training Loss: 0.579275 	Validation Loss: 0.613695
Epoch: 6 	Training Loss: 0.528905 	Validation Loss: 0.570390
Epoch: 7 	Training Loss: 0.508558 	Validation Loss: 0.570239
Epoch: 8 	Training Loss: 0.503555 	Validation Loss: 0.545585
Epoch: 9 	Training Loss: 0.491032 	Validation Loss: 0.537785
Epoch: 10 	Training Loss: 0.488227 	Validation Loss: 0.576062
Epoch: 11 	Training Loss: 0.486657 	Validation Loss: 0.565124
Epoch: 12 	Training Loss: 0.474085 	Validation Loss: 0.589680
Epoch: 13 	Training Loss: 0.455419 	Validation Loss: 0.584890
Epoch: 14 	Training Loss: 0.472254 	Validation Loss: 0.500755
Epoch: 15 	Training Loss: 0.427315 	Validation Loss: 0.517724
best_batch = 14
Accuracy   = 0.79
batch_size = 10
n_epochs   = 15
CNN(
  (conv1): Conv2d(3, 40, kernel_size=(3, 3), stride=(1, 1), padding=(1, 1))
  (conv2): Conv2d(40, 60, kernel_size=(3, 3), stride=(1, 1), padding=(1, 1))
  (conv3): Conv2d(60, 80, kernel_size=(3, 3), stride=(1, 1), padding=(1, 1))
  (conv4): Conv2d(80, 100, kernel_size=(3, 3), stride=(1, 1), padding=(1, 1))
  (pool1): MaxPool2d(kernel_size=5, stride=5, padding=0, dilation=1, ceil_mode=False)
  (pool2): MaxPool2d(kernel_size=2, stride=2, padding=0, dilation=1, ceil_mode=False)
  (fc1): Linear(in_features=1600, out_features=100, bias=True)
  (fc2): Linear(in_features=100, out_features=2, bias=True)
  (dropout): Dropout(p=0.2, inplace=False)
)
Epoch: 1 	Training Loss: 0.691764 	Validation Loss: 0.681582
Epoch: 2 	Training Loss: 0.679196 	Validation Loss: 0.662098
Epoch: 3 	Training Loss: 0.665072 	Validation Loss: 0.663773
Epoch: 4 	Training Loss: 0.647892 	Validation Loss: 0.649399
Epoch: 5 	Training Loss: 0.633747 	Validation Loss: 0.620624
Epoch: 6 	Training Loss: 0.598966 	Validation Loss: 0.611583
Epoch: 7 	Training Loss: 0.548951 	Validation Loss: 0.566092
Epoch: 8 	Training Loss: 0.544580 	Validation Loss: 0.571833
Epoch: 9 	Training Loss: 0.533541 	Validation Loss: 0.537071
Epoch: 10 	Training Loss: 0.511155 	Validation Loss: 0.547168
Epoch: 11 	Training Loss: 0.501734 	Validation Loss: 0.531313
Epoch: 12 	Training Loss: 0.500897 	Validation Loss: 0.572498
Epoch: 13 	Training Loss: 0.491220 	Validation Loss: 0.542540
Epoch: 14 	Training Loss: 0.473373 	Validation Loss: 0.536946
Epoch: 15 	Training Loss: 0.462171 	Validation Loss: 0.533452
best_batch = 11
Accuracy   = 0.715
batch_size = 10
n_epochs   = 15
CNN(
  (conv1): Conv2d(3, 40, kernel_size=(3, 3), stride=(1, 1), padding=(1, 1))
  (conv2): Conv2d(40, 60, kernel_size=(3, 3), stride=(1, 1), padding=(1, 1))
  (conv3): Conv2d(60, 80, kernel_size=(3, 3), stride=(1, 1), padding=(1, 1))
  (conv4): Conv2d(80, 100, kernel_size=(3, 3), stride=(1, 1), padding=(1, 1))
  (pool1): MaxPool2d(kernel_size=5, stride=5, padding=0, dilation=1, ceil_mode=False)
  (pool2): MaxPool2d(kernel_size=2, stride=2, padding=0, dilation=1, ceil_mode=False)
  (fc1): Linear(in_features=1600, out_features=200, bias=True)
  (fc2): Linear(in_features=200, out_features=50, bias=True)
  (fc3): Linear(in_features=50, out_features=2, bias=True)
  (dropout): Dropout(p=0.2, inplace=False)
)
Epoch: 1 	Training Loss: 0.698083 	Validation Loss: 0.693618
Epoch: 2 	Training Loss: 0.692940 	Validation Loss: 0.689465
Epoch: 3 	Training Loss: 0.684768 	Validation Loss: 0.650215
Epoch: 4 	Training Loss: 0.655178 	Validation Loss: 0.637579
Epoch: 5 	Training Loss: 0.617470 	Validation Loss: 0.590825
Epoch: 6 	Training Loss: 0.587325 	Validation Loss: 0.587815
…
Epoch: 7 	Training Loss: 0.546407 	Validation Loss: 0.540512
Epoch: 8 	Training Loss: 0.531987 	Validation Loss: 0.516713
Epoch: 9 	Training Loss: 0.506720 	Validation Loss: 0.492322
Epoch: 10 	Training Loss: 0.517437 	Validation Loss: 0.490459
Epoch: 11 	Training Loss: 0.478028 	Validation Loss: 0.481460
Epoch: 12 	Training Loss: 0.479964 	Validation Loss: 0.455721
Epoch: 13 	Training Loss: 0.465205 	Validation Loss: 0.452179
Epoch: 14 	Training Loss: 0.460075 	Validation Loss: 0.456160
Epoch: 15 	Training Loss: 0.446785 	Validation Loss: 0.445461
best_batch = 15
Accuracy   = 0.805
batch_size = 10
n_epochs   = 15
CNN(
  (conv1): Conv2d(3, 40, kernel_size=(3, 3), stride=(1, 1), padding=(1, 1))
  (conv2): Conv2d(40, 60, kernel_size=(3, 3), stride=(1, 1), padding=(1, 1))
  (conv3): Conv2d(60, 80, kernel_size=(3, 3), stride=(1, 1), padding=(1, 1))
  (conv4): Conv2d(80, 100, kernel_size=(3, 3), stride=(1, 1), padding=(1, 1))
  (pool1): MaxPool2d(kernel_size=5, stride=5, padding=0, dilation=1, ceil_mode=False)
  (pool2): MaxPool2d(kernel_size=2, stride=2, padding=0, dilation=1, ceil_mode=False)
  (fc1): Linear(in_features=1600, out_features=200, bias=True)
  (fc2): Linear(in_features=200, out_features=100, bias=True)
  (fc3): Linear(in_features=100, out_features=2, bias=True)
  (dropout): Dropout(p=0.2, inplace=False)
)
Epoch: 1 	Training Loss: 0.692774 	Validation Loss: 0.688679
Epoch: 2 	Training Loss: 0.672045 	Validation Loss: 0.663493
Epoch: 3 	Training Loss: 0.672024 	Validation Loss: 0.658666
Epoch: 4 	Training Loss: 0.651467 	Validation Loss: 0.646008
Epoch: 5 	Training Loss: 0.614429 	Validation Loss: 0.618273
Epoch: 6 	Training Loss: 0.598254 	Validation Loss: 0.564807
Epoch: 7 	Training Loss: 0.541717 	Validation Loss: 0.648655
Epoch: 8 	Training Loss: 0.543827 	Validation Loss: 0.538784
Epoch: 9 	Training Loss: 0.510136 	Validation Loss: 0.516382
Epoch: 10 	Training Loss: 0.500678 	Validation Loss: 0.513406
Epoch: 11 	Training Loss: 0.496406 	Validation Loss: 0.476139
Epoch: 12 	Training Loss: 0.490130 	Validation Loss: 0.492000
Epoch: 13 	Training Loss: 0.470706 	Validation Loss: 0.463911
Epoch: 14 	Training Loss: 0.468255 	Validation Loss: 0.456951
Epoch: 15 	Training Loss: 0.458053 	Validation Loss: 0.450021
best_batch = 15
Accuracy   = 0.78
batch_size = 10
n_epochs   = 15
CNN(
  (conv1): Conv2d(3, 40, kernel_size=(3, 3), stride=(1, 1), padding=(1, 1))
  (conv2): Conv2d(40, 60, kernel_size=(3, 3), stride=(1, 1), padding=(1, 1))
  (conv3): Conv2d(60, 80, kernel_size=(3, 3), stride=(1, 1), padding=(1, 1))
  (conv4): Conv2d(80, 100, kernel_size=(3, 3), stride=(1, 1), padding=(1, 1))
  (pool1): MaxPool2d(kernel_size=5, stride=5, padding=0, dilation=1, ceil_mode=False)
  (pool2): MaxPool2d(kernel_size=2, stride=2, padding=0, dilation=1, ceil_mode=False)
  (fc1): Linear(in_features=1600, out_features=200, bias=True)
  (fc2): Linear(in_features=200, out_features=25, bias=True)
  (fc3): Linear(in_features=25, out_features=2, bias=True)
  (dropout): Dropout(p=0.2, inplace=False)
)
Epoch: 1 	Training Loss: 0.697842 	Validation Loss: 0.697410
Epoch: 2 	Training Loss: 0.687314 	Validation Loss: 0.672778
Epoch: 3 	Training Loss: 0.684092 	Validation Loss: 0.672641
Epoch: 4 	Training Loss: 0.676541 	Validation Loss: 0.660727
Epoch: 5 	Training Loss: 0.667459 	Validation Loss: 0.657536
Epoch: 6 	Training Loss: 0.644402 	Validation Loss: 0.635204
…
